…
	Rse: 0.3366581
	Mean_Absolute_Error: 0.023559662

Model Summary:
	Model: "model"
	__________________________________________________________________________________________________
	Layer (type)                    Output Shape         Param #     Connected to                     
	==================================================================================================
	input_1 (InputLayer)            [(None, 11, 14)]     0                                            
	__________________________________________________________________________________________________
	reshape (Reshape)               (None, 11, 14, 1)    0           input_1[0][0]                    
	__________________________________________________________________________________________________
	conv2d (Conv2D)                 (None, 6, 1, 64)     5440        reshape[0][0]                    
	__________________________________________________________________________________________________
	dropout (Dropout)               (None, 6, 1, 64)     0           conv2d[0][0]                     
	__________________________________________________________________________________________________
	reshape_1 (Reshape)             (None, 6, 64)        0           dropout[0][0]                    
	__________________________________________________________________________________________________
	pre_ar_trans (PreARTrans)       (None, 11)           0           input_1[0][0]                    
	__________________________________________________________________________________________________
	bidirectional (Bidirectional)   (None, 128)          66048       reshape_1[0][0]                  
	__________________________________________________________________________________________________
	flatten_1 (Flatten)             (None, 11)           0           pre_ar_trans[0][0]               
	__________________________________________________________________________________________________
	dropout_1 (Dropout)             (None, 128)          0           bidirectional[0][0]              
	__________________________________________________________________________________________________
	activation (Activation)         (None, 11)           0           flatten_1[0][0]                  
	__________________________________________________________________________________________________
	flatten (Flatten)               (None, 128)          0           dropout_1[0][0]                  
	__________________________________________________________________________________________________
	dense_1 (Dense)                 (None, 1)            12          activation[0][0]                 
	__________________________________________________________________________________________________
	dense (Dense)                   (None, 14)           1806        flatten[0][0]                    
	__________________________________________________________________________________________________
	post_ar_trans (PostARTrans)     (None, 14)           0           dense_1[0][0]                    
	                                                                 input_1[0][0]                    
	__________________________________________________________________________________________________
	add (Add)                       (None, 14)           0           dense[0][0]                      
	                                                                 post_ar_trans[0][0]              
	==================================================================================================
	Total params: 73,306
	Trainable params: 73,306
	Non-trainable params: 0
	__________________________________________________________________________________________________
